_________________________________________________________________
Layer (type)                 Output Shape              Param #   
=================================================================
conv2d_1 (Conv2D)            (None, 198, 198, 48)      1344      
_________________________________________________________________
max_pooling2d_1 (MaxPooling2 (None, 99, 99, 48)        0         
_________________________________________________________________
conv2d_2 (Conv2D)            (None, 97, 97, 32)        13856     
_________________________________________________________________
max_pooling2d_2 (MaxPooling2 (None, 48, 48, 32)        0         
_________________________________________________________________
conv2d_3 (Conv2D)            (None, 46, 46, 24)        6936      
_________________________________________________________________
max_pooling2d_3 (MaxPooling2 (None, 23, 23, 24)        0         
_________________________________________________________________
flatten_1 (Flatten)          (None, 12696)             0         
_________________________________________________________________
dense_1 (Dense)              (None, 128)               1625216   
_________________________________________________________________
dense_2 (Dense)              (None, 16)                2064      
=================================================================
Total params: 1,649,416
Trainable params: 1,649,416
Non-trainable params: 0
_________________________________________________________________

epochs: 50
steps_per_epoch: 50
checkpoints: 1
Epoch 1: {'val_loss': [1.0673609495162963], 'acc': [0.3125], 'loss': [2.0634326720237732], 'val_acc': [0.64375]}
Epoch 2: {'val_loss': [0.7857011079788208], 'acc': [0.51125], 'loss': [1.4037039959430695], 'val_acc': [0.65]}
…
