_________________________________________________________________
Layer (type)                 Output Shape              Param #   
=================================================================
conv2d_1 (Conv2D)            (None, 26, 26, 32)        320       
_________________________________________________________________
max_pooling2d_1 (MaxPooling2 (None, 13, 13, 32)        0         
_________________________________________________________________
conv2d_2 (Conv2D)            (None, 11, 11, 16)        4624      
_________________________________________________________________
max_pooling2d_2 (MaxPooling2 (None, 5, 5, 16)          0         
_________________________________________________________________
flatten_1 (Flatten)          (None, 400)               0         
_________________________________________________________________
dense_1 (Dense)              (None, 128)               51328     
_________________________________________________________________
dense_2 (Dense)              (None, 10)                1290      
=================================================================
Total params: 57,562
Trainable params: 57,562
Non-trainable params: 0
_________________________________________________________________

epochs: 20
batch_size: 128
checkpoints: 1
train_size: 60000
test_size: 6000
Scores on test set for run 1: loss/accuracy=(0.23254415027300518, 0.9328333330154419)
Scores on test set for run 2: loss/accuracy=(0.13903423726558686, 0.9586666665077209)
…
